experiences_2021/Experience_AIPython/model/model.pth (torch, 16799 bytes, 4 tensors)

linear1.weight f4 [256, 11]
000000 2f 82 49 3d 53 e9 8f 3d 62 6c 5e 3e 93 31 64 3e
       0.04919642 0.07026925 0.21721032 0.22284536
000010 19 12 33 be 25 19 cb 3e ce 0f 66 be 0d e2 02 be
       -0.17487372 0.3966762 -0.22466967 -0.12781544
000020 3e 0e fc be f3 80 b1 be 07 63 3d 3e ba 00 c8 3e
       -0.49229616 -0.34668693 0.18494807 0.39063054
000030 24 f6 ef bc 03 5f 4d 3d 1c 85 7a be f4 1f 7d bd
       -0.029292174 0.05013944 -0.2446484 -0.06179805
000040 95 4f 02 3f 5f f1 a8 3c 86 cd ad 3e cd 84 95 3e
       0.5090268 0.020622907 0.33945864 0.2920288
000050 e3 78 0e bf 84 30 a1 bd 60 29 a0 3e d0 0e 8c 3e
       -0.5565321 -0.07870582 0.31281567 0.2735505
000060 67 3f 1a 3e 11 cd fa 3e b5 93 89 bd c2 e9 14 3e
       0.15063249 0.48984578 -0.06717626 0.14542297
000070 57 b9 f8 bd ed 4c 8a be 26 50 8b 3e cb ea ac 3d
       -0.12144726 -0.27011815 0.27209586 0.08443221
000080 1b f8 30 3e 36 4e db 3d 7c 41 cb 3d 46 dd be 3d
       0.17282145 0.10708277 0.099245995 0.09319548
000090 c9 b0 ba be 38 ae bf 3e b9 99 3d 3f 12 a5 f0 3d
       -0.36463 0.37437606 0.7406269 0.11750235
0000a0 b0 3a 1e 3f c4 43 24 bf 5b 64 09 bf e3 d6 2e 3e
       0.618083 -0.641659 -0.53668755 0.1707416
0000b0 b3 20 5b 3d dc 72 27 be 74 6c 0b be ee 5e 89 3d
       0.05349798 -0.16352409 -0.1361559 0.067075595
0000c0 f9 b3 90 bd f5 43 2e be ba 1a cc bd 34 fb ee 3d
       -0.07065577 -0.17018111 -0.09966035 0.11669007
0000d0 44 05 99 3d 46 fd 57 be 38 60 7f 3d e3 6f 61 be
       0.074717075 -0.2109271 0.06234762 -0.22015338
0000e0 55 9d a8 3d 57 8a b9 3d 25 a2 9c be 3f 84 0a 3f
       0.08233134 0.09059589 -0.30592456 0.5410804
0000f0 37 44 9f 3e 5c 37 87 bd 15 4d f0 3e a7 28 d6 be
       0.3110673 -0.06602356 0.4693381 -0.4182789
000100 da f2 3d be b7 fa 8f 3e 57 3c 61 be 5e 07 0b 3e
       -0.18549672 0.28120968 -0.21995674 0.13577029
000110 17 c6 51 bd 14 e8 cf 3e 2a dc 81 3e 5c cd a0 3e
       -0.051214304 0.4060675 0.25363284 0.31406677
000120 2b 62 ba 3e db 1d d6 3e 26 83 0b 3f af 28 75 3e
       0.3640302 0.41819653 0.5449699 0.23941301
000130 a5 ac 9d 3e 10 48 60 be 93 b5 50 3e e0 b2 de 3c
       0.3079578 -0.2190249 0.20381765 0.027184904
000140 70 4f 86 be 20 08 1c be 1a a2 c7 bd 6e ed 01 be
       -0.2623248 -0.15237474 -0.09747715 -0.12688228
000150 f3 38 4d be cc 56 6d be 1b dc 15 be 6f 5e 07 3e
       -0.20041256 -0.23177642 -0.14634745 0.13219617
000160 25 fd f3 3c 4c 72 8d be e2 35 d4 3d 82 37 51 be
       0.029783795 -0.27626264 0.1036184 -0.20431331
000170 6c 39 a9 3d 1b 2e 3e bd a9 b7 54 3e b6 3e 30 bb
       0.082629055 -0.04643069 0.20773186 -0.0026892847
000180 2a 6e 38 3e 38 5d cb bd 38 15 ca be 1c 96 9d 3e
       0.18010774 -0.099298894 -0.39469314 0.30778587
000190 da a5 69 3c 44 e1 d6 3d dd 64 81 be 95 0a 8a 3e
       0.0142607335 0.10492185 -0.25272265 0.26961198
0001a0 22 0a 8d be 25 69 ea 3e a6 a5 07 3f ac 4b 1d bf
       -0.27546793 0.45783344 0.52987134 -0.6144359
0001b0 17 fd 91 3d ea 9d df bd fe ab a4 be 7a 41 d9 3d
       0.07128351 -0.109187916 -0.3216247 0.10608192
0001c0 ec 30 1a bd 3a 12 6c 3e 6e c0 dd be f7 5c dd 3e
       -0.03764431 0.23053828 -0.43310875 0.4323499
0001d0 bb e1 51 be d4 e3 10 bd 73 61 23 3f b4 bd 81 be
       -0.20496266 -0.035373524 0.6382057 -0.25340044
0001e0 58 e1 da 3e 33 8d 64 3d 14 0d 64 be f7 cf a7 bd
       0.4275005 0.05579872 -0.22270614 -0.08193963
0001f0 29 61 ae bd 1a f5 86 3e ff db f0 bc da c9 e8 3e
       -0.085146256 0.26358873 -0.029401777 0.454665
000200 41 05 c8 3e 0a 12 f0 3d dd c0 bb 3e b4 05 17 bd
       0.39066508 0.11722191 0.3667058 -0.036870673
000210 06 af 9d bd ec ad 66 3e 69 d2 59 3e 22 d1 c1 3c
       -0.07699399 0.22527283 0.21271671 0.023659293
000220 47 a1 d0 bd 6b dc 8f 3d f1 2f 94 3e 25 03 b2 3e
       -0.10187011 0.07024463 0.28942826 0.34768024
000230 a0 c9 fb 3d 3c 27 8d bd 3f 15 15 be 73 ce 7c bd
       0.12294316 -0.06892249 -0.14558886 -0.061720323
000240 d7 3d c9 bd a4 52 d9 be 40 20 88 be 87 cc 99 3e
       -0.09826248 -0.42445862 -0.26587105 0.30038854
000250 5c 19 35 3e 73 80 96 3e 43 9d 1b 3f 32 52 09 be
       0.17685455 0.29394874 0.6078684 -0.13410261
000260 cd fe 06 3e ea 32 8e 3e 85 c4 5c 3e 33 4f 17 be
       0.13183136 0.2777322 0.21559341 -0.14776306
000270 28 96 c5 3d 1d c0 5c bd d4 33 01 3d e4 0c 32 3d
       0.09647781 -0.05389415 0.031543568 0.043469325
000280 9d 99 47 be 2b da 35 be ad f7 c5 bc 36 1b b0 bc
       -0.19492193 -0.17759006 -0.024165953 -0.02149735
000290 74 a6 e5 bd ab 18 2c be fc 54 da 3b 7d e8 4c 3e
       -0.11213389 -0.16806285 0.006662963 0.20010562
0002a0 03 ca 09 3f 7f d3 31 be 4f d9 1d be 15 a3 ff be
       0.5382387 -0.17365836 -0.15414928 -0.4992911
0002b0 d8 27 b5 be dd d4 ad 3e a7 a5 a4 3e 7e be 27 be
       -0.3538196 0.33951464 0.32157633 -0.16381261
0002c0 20 83 ec 3d 5d c0 95 3d 45 4d d4 3d 67 62 03 3e
       0.115484476 0.07312081 0.103663005 0.12830506
0002d0 8b 74 37 3c c9 ee 06 3d b5 00 15 3e f9 07 1c 3d
       0.01119722 0.032942567 0.14551051 0.03809354
0002e0 bd 57 31 3e cf 84 28 3c 79 f0 c1 bd 9c 76 4a 3e
       0.17318626 0.01028557 -0.09469695 0.19771808
0002f0 14 77 7f be 03 4c b1 3d 37 42 ae 3d 56 25 16 be
       -0.24947768 0.08657076 0.08508723 -0.1466268
000300 c4 f1 4c 3e 45 d1 2d 3e 9b 8d 89 3e 20 f6 9e 3e
       0.20014101 0.16974361 0.2686585 0.31047153
000310 1f 4a b9 3e 42 a7 3c 3e a9 e8 1c be fc b4 ab be
       0.36189362 0.18423179 -0.15323128 -0.33536518
000320 c4 24 94 3e f1 8a 00 be 26 96 51 be 59 71 a5 3e
       0.289343 -0.12553002 -0.20467433 0.3231304
000330 0b f3 be 3c 8b 33 8b 3d fd c4 09 3e 93 c5 99 be
       0.023309251 0.067969404 0.13454051 -0.3003355
000340 67 03 9f be 0a 03 8d 3e a6 8b 76 bd 2a f4 fd 3d
       -0.31057283 0.2754138 -0.060191773 0.12400086
000350 98 88 6a be 6e ed 23 be 17 2d 0c 3f 99 56 7f 3e
       -0.22903669 -0.16008541 0.547563 0.24935378
000360 7e 64 06 3f e5 d2 06 3f 81 6a b4 be d3 ae e6 bd
       0.5249709 0.5266555 -0.35237506 -0.11263814
000370 e8 b8 35 be f3 cf b8 3e e5 68 93 3e 8a 15 69 3e
       -0.17746317 0.36096153 0.28790966 0.22762123
000380 85 29 f0 3d ff b9 21 3e a8 a3 64 3e 4f 8a fc 3e
       0.11726669 0.15793608 0.22328055 0.4932427
000390 83 c7 2b 3e a5 a4 ac 3e 79 8c bb 3e 7d 72 7c bd
       0.16775326 0.33719364 0.3663061 -0.061632622
0003a0 1e e8 33 3e 57 f9 3a 3e 5c 9f 90 be 74 07 8f be
       0.17569014 0.18259178 -0.28246582 -0.27935374
0003b0 78 46 6e be b0 0a c9 3e 58 56 e7 be 56 b8 3c bf
       -0.23269069 0.39265966 -0.45183063 -0.73718774
0003c0 16 e6 ee be ee 2d 9e 3e af d3 39 bc 6c 64 f7 3d
       -0.46659917 0.30894417 -0.011341973 0.12079701
0003d0 f5 12 80 bd 91 2c 62 3e c7 78 0c be 69 83 cd be
       -0.06253616 0.22087313 -0.13717948 -0.4013932
0003e0 fe f4 c6 3e b4 16 51 be c5 2b 87 3e 00 60 0f 3f
       0.3885879 -0.20418817 0.2640058 0.5600586
0003f0 45 ae e3 be f4 cc 6f 3e ee db 02 be 97 5a 83 3e
       -0.44468895 0.23418027 -0.12779209 0.25655052

linear1.bias f4 [256]
000000 26 b3 8d bd 47 75 d2 3c d6 c1 e8 be 76 e7 86 be
       -0.069189355 0.025690688 -0.45460385 -0.26348466
000010 b7 c3 b1 be f3 67 5e be 54 54 d1 3d c2 7d 89 be
       -0.3471963 -0.21719341 0.102211624 -0.26853758
000020 44 4a 84 3e 8a 50 45 be b9 5a 55 be a6 ff 8c be
       0.2583791 -0.19269004 -0.20835389 -0.27538794
000030 8c cc 09 3f 35 5e a3 be c0 12 bf be 11 78 40 be
       0.5382774 -0.31907812 -0.37318993 -0.18795802
000040 3e c6 22 3e 59 74 e0 bd ba 7d f1 3c cf 31 e9 bd
       0.15895936 -0.109596916 0.029478896 -0.11386453
000050 43 53 96 3e 26 aa 3c be da e6 bb bd 76 0f d6 be
       0.293604 -0.18424281 -0.09174891 -0.4180867
000060 aa ee c0 be 59 5d af be 39 79 8f be dc ef 9f 3e
       -0.37682086 -0.34250906 -0.28022173 0.31237686
000070 93 2a 25 be 39 af b3 be 7f d1 9b be d1 3c 35 be
       -0.16129522 -0.35094622 -0.3043327 -0.17698981
000080 78 07 a9 bc 32 1c 20 be 57 95 0e be a0 56 b8 be
       -0.020633444 -0.15635756 -0.13924156 -0.3600359
000090 fd c3 d2 be c6 e9 d9 bd c6 14 26 be 6b 8e 0d be
       -0.41165152 -0.10640292 -0.16218862 -0.1382386
0000a0 02 f2 7f be 6f 98 8c b9 40 95 99 be 10 dd 3b be
       -0.24994662 -0.00026816453 -0.2999668 -0.18346047
0000b0 20 bc 1a be c8 6f 89 be 4f 48 01 be da 3a 34 be
       -0.15110826 -0.26843095 -0.1262524 -0.17600575
0000c0 f2 32 95 be 2d 23 49 3d ab e0 13 bd 39 28 3a be
       -0.2914043 0.049105812 -0.036102932 -0.18179406
0000d0 38 d9 2e 3e 1b 19 d2 be 26 22 17 3e 48 82 dc 3e
       0.1707505 -0.4103478 0.1475912 0.43068147
0000e0 94 65 38 3c ed 72 a5 bd 7a 3c 0f 3c 21 e0 2b 3c
       0.011254687 -0.08078561 0.008742446 0.010490448
0000f0 0a 80 31 be 45 9f d6 be 5d 51 84 bd 59 55 91 be
       -0.17334 -0.41918388 -0.06460831 -0.28385428
000100 e3 d8 c3 bc ee 3f 6d 3d 45 77 24 be 76 f8 0d 3f
       -0.02390713 0.057922296 -0.16061123 0.55457246
000110 09 b7 21 be 02 10 12 3e c1 7b 9e be 97 93 2c bd
       -0.15792479 0.14263919 -0.30953792 -0.04213294
000120 d7 84 68 be ec ff 8b be c9 d6 4a bd 21 9a 98 be
       -0.22706924 -0.2734369 -0.04952124 -0.2980509
000130 f5 53 d0 3d 62 b3 c5 3d fa 78 f5 bd 66 21 94 3e
       0.101722635 0.09653355 -0.11985965 0.2893173
000140 5b 42 80 be 03 1e 36 be 15 5c 28 be 27 f3 a7 3c
       -0.25050625 -0.17784886 -0.16441377 0.020501686
000150 40 be 4c 3e dd 64 ca be 2c d6 92 bd 51 71 82 be
       0.1999445 -0.39530078 -0.07169756 -0.2547708
000160 01 2c fd bc c7 51 7e bd 73 32 90 bd a3 72 6b be
       -0.030904772 -0.062089708 -0.070408724 -0.22992949
000170 7d 50 c6 be 95 00 6b be 21 d1 23 be dc 00 93 be
       -0.38733283 -0.22949441 -0.15997745 -0.28711593
000180 7b c4 7a 3e 69 db 92 3d dd 71 20 be 58 33 a2 bd
       0.24489014 0.071707554 -0.15668435 -0.07919949
000190 20 72 b8 bd bd 2b 42 3d eb e7 a9 be 54 9f ab be
       -0.090061426 0.047404993 -0.33184752 -0.33519995
0001a0 7b a7 4d 3e 86 63 a9 be 57 97 82 3e a8 a2 91 be
       0.2008342 -0.33083743 0.25506088 -0.2844441
0001b0 ed e4 20 be 4b 50 2a be 5b 57 25 be a8 84 3f be
       -0.15712328 -0.16632192 -0.16146605 -0.18702948
0001c0 5a 55 ff bd 29 a9 40 be e4 6e aa be c6 78 14 3e
       -0.124674514 -0.1881453 -0.33287728 0.14499196
0001d0 f6 55 c6 be f4 9a 81 be 04 1f fd 3e 4e 92 80 3e
       -0.38737458 -0.25313532 0.49437726 0.25111622
0001e0 d8 e8 ac be 26 05 f2 3e 25 a7 64 3e a3 91 a1 3d
       -0.33771396 0.47269553 0.22329386 0.07889106
0001f0 49 a2 c6 3c 71 b1 e2 be 22 12 26 be 7b ba e2 be
       0.024247305 -0.44276002 -0.16217855 -0.44282898
000200 9f 88 c4 3c 0b be 99 be 52 03 3b be 8e 43 01 3f
       0.023990927 -0.30027804 -0.18262985 0.50493705
000210 56 20 35 be 6e 64 a3 bd b8 75 fd bd fd a1 ff bc
       -0.17688116 -0.0797814 -0.12375969 -0.031205172
000220 cc 8e 52 be 91 ed 2c be 4b ff 37 3e de b4 ac bd
       -0.20562285 -0.168875 0.1796848 -0.08432935
000230 3d be 6c 3d f9 bb 2c 3e 7f cd e9 bc f2 91 2b bd
       0.057798613 0.16868581 -0.028540371 -0.04188723
000240 84 ea ba bd f4 d5 1b be 10 a4 e4 bb cc 0c b3 be
       -0.091267616 -0.15218335 -0.0069775656 -0.349707
000250 f8 8a 60 3d 07 47 d8 3e 4c ab 5d bb 5b 34 1c 3e
       0.05482003 0.4224169 -0.0033824025 0.15254347
000260 88 74 1f be 87 91 ca be be 52 23 bd 19 ec b3 be
       -0.15571797 -0.39564154 -0.03987383 -0.35141066
000270 47 07 c7 be c6 b6 55 3e 53 00 b0 bd 75 26 0c 3e
       -0.3887274 0.20870504 -0.08593812 0.13686545
000280 92 6e 07 be 5c 1c ef 3d d9 05 e0 bc c1 44 29 be
       -0.13225773 0.11675331 -0.027346538 -0.16530134
000290 29 6b 84 bd 42 96 d2 bd b4 bb c9 bd 88 a4 39 bd
       -0.06465752 -0.10282566 -0.09850255 -0.045322925
0002a0 50 10 03 be f1 ea a8 be 48 89 7b be c7 b7 37 be
       -0.12799191 -0.32991746 -0.24564087 -0.17941199
0002b0 2c a4 9b bd 44 0b 78 3d 42 0d 2b be c1 4b 82 be
       -0.07599673 0.06055762 -0.16704276 -0.2544842
0002c0 6e 55 bf bd 2f 5b 58 3d e9 83 b4 be 03 20 fa bc
       -0.09342466 0.052821334 -0.3525689 -0.030532843
0002d0 9c e6 9a be 58 9e b4 be 8f 8c 32 bc 2d e4 bd bd
       -0.30254066 -0.35277057 -0.01089777 -0.09272037
0002e0 98 f6 d1 3d 9c ed a2 bd 28 30 d1 3e 18 b1 01 3e
       0.10252112 -0.07955477 0.40857053 0.12665212
0002f0 f0 af bf bd 5c 69 79 bc aa 4b 37 be 19 14 5f be
       -0.09359729 -0.015222874 -0.17899957 -0.2178501
000300 01 b1 bb bd 4b 0b 28 be 8e a2 55 3d 3f 79 ab be
       -0.0916462 -0.16410558 0.052156977 -0.3349094
000310 70 a2 ac 3d 15 77 bf 3d 55 12 00 bd d1 d9 0e be
       0.0842942 0.09348885 -0.031267483 -0.13950278
000320 b4 5c 6d bd 3f 24 2b be dd b4 63 3d e5 62 83 bd
       -0.057949737 -0.16713046 0.055592407 -0.06415347
000330 3f 24 c0 3d 29 3f 07 3f 15 f3 4d be cf 2e 51 bd
       0.093819134 0.5283075 -0.2011226 -0.05107003
000340 8e 25 36 be 5d 76 96 3e f4 c6 9a be a4 ba 31 be
       -0.17787763 0.2938718 -0.30229914 -0.17356354
000350 8d bd ed be 1d e2 70 be 85 c9 a4 3d 40 e0 71 3a
       -0.46433678 -0.23523755 0.08046249 0.0009226836
000360 62 32 cd bd 51 ef e6 3d 4a c6 b0 3d 38 32 e4 be
       -0.100193754 0.11276115 0.08631571 -0.44569564
000370 f0 34 a3 bd 5e b1 da 3e cb d7 17 be 59 f5 82 be
       -0.079690814 0.42713445 -0.14828412 -0.2557781
000380 6c ac 3f bd 5f 4e 89 be 69 33 03 3f 0d 27 d9 be
       -0.046795294 -0.26817605 0.5125032 -0.42412606
000390 8e 13 18 bd e0 7f 23 3f 81 52 47 be e3 62 2c 3e
       -0.037128024 0.63866997 -0.19465066 0.16834597
0003a0 7e b2 90 be 47 e8 90 be 79 d0 2a 3e e6 c7 b3 3e
       -0.2826118 -0.28302214 0.16681089 0.35113448
0003b0 f5 1e bf 3d 88 74 a0 bd 1b c9 91 be ee 81 9b 3e
       0.093320765 -0.078347266 -0.28473744 0.30372566
0003c0 c2 01 fd bd 0a cd 6c be 5e 07 9c be dd 49 91 be
       -0.12353851 -0.23125091 -0.3047437 -0.28376666
0003d0 dc be 29 be 42 8e 30 bd 5a 79 51 be 67 5c 47 be
       -0.16576713 -0.043104418 -0.20456448 -0.19468842
0003e0 8b 36 91 be 99 7a 1e 3c 19 32 1e be a1 bf 78 be
       -0.28361925 0.009672784 -0.15448798 -0.2429185
0003f0 f9 74 83 3e a9 4e 7d be 4d f7 20 be 24 ae fb be
       0.2567518 -0.24737038 -0.15719338 -0.49156296

linear2.weight f4 [3, 256]
000000 b7 d6 06 bd 6c 1e 2f be bb ac 88 bd dd c1 00 bf
       -0.03291961 -0.17101449 -0.06673571 -0.5029581
000010 b8 2f c4 3b 93 35 e4 be e7 e4 de bd 10 ad 4c 3c
       0.005987134 -0.44572124 -0.108835034 0.012492433
000020 8c fe 1c bd 2f 30 88 be ef 47 fe be 7e 11 fb bd
       -0.038328692 -0.2659926 -0.49664256 -0.12259196
000030 4d a7 71 bc 98 b5 24 be 4a 29 f3 3c 19 43 ae be
       -0.01474936 -0.16084898 0.029682774 -0.34035566
000040 d6 97 1a bc 52 73 ab bd 62 41 11 be 4f fd 07 bf
       -0.009435615 -0.08371605 -0.14185098 -0.53120893
000050 50 5b a7 bd e4 88 ad 3e 22 6e bc be d1 0e 3a be
       -0.08171713 0.33893502 -0.36802775 -0.18169715
000060 23 51 8c bd 19 bc 21 bf 4f ee 36 be 75 ee 92 bd
       -0.06851413 -0.6317764 -0.17864345 -0.07174388
000070 36 1f 37 be da 4a 27 bd 49 f4 9f be f4 48 f3 be
       -0.17883 -0.04084287 -0.31241062 -0.47516596
000080 78 bd 8d bb 31 2f 25 bf ed 81 7a bc 2b 64 e4 bc
       -0.004325565 -0.64525133 -0.015289766 -0.027879795
000090 8f c1 ab be d3 1b cf bd 30 c3 d8 3b 03 e0 71 be
       -0.3354611 -0.10112729 0.006615065 -0.2362061
0000a0 56 73 26 be 46 ce e6 bc 8b 57 55 bd a8 04 89 bd
       -0.16254935 -0.02817453 -0.05208544 -0.06690341
0000b0 55 7c 9f be d1 a7 9e bd a8 7d 52 be 60 99 cc bd
       -0.31149545 -0.07746852 -0.20555747 -0.099901915
0000c0 8d c9 31 bd 84 92 a2 bd 98 d3 eb bd 61 4a c3 bd
       -0.043405104 -0.07938102 -0.11514968 -0.09535671
0000d0 18 19 5b 3b 5d 8d 29 3e 19 b4 68 bc 27 e9 c5 bd
       0.0033431705 0.16557832 -0.014203095 -0.09663611
0000e0 88 6e b2 be 75 25 0d be f6 bd f0 bd 8d 96 4c bd
       -0.34849954 -0.1378382 -0.11754982 -0.049948264
0000f0 1f 4a b1 be 59 f1 13 bc c1 bc 10 bd e5 49 ce bb
       -0.34626862 -0.00902971 -0.03533626 -0.00629543
000100 fa 39 38 3b 95 6c c1 bd 3b 9d 42 be 26 57 05 bd
       0.0028110729 -0.094445385 -0.19005291 -0.032553814
000110 a8 db c3 bd 9c 3d da 3e 6b ae dd 3c 83 d2 c1 bd
       -0.095633805 0.4262513 0.027060708 -0.0946398
000120 ae 26 9d bd 41 ff c1 be 02 76 b8 3d 03 2b 34 3c
       -0.07673393 -0.37890056 0.09006883 0.010996583
000130 11 72 97 be 9c a2 8a 3c 77 c1 d9 bc e3 1a e5 bd
       -0.29579213 0.016923241 -0.026581509 -0.11186769
000140 a0 2e 2c 3c b5 e4 8e be 61 c6 f4 bb 82 c9 5b be
       0.010509163 -0.27908865 -0.0074699377 -0.21463588
000150 6c 74 9d bc 3e 68 f0 bd 97 30 0f bb 2f b0 90 bd
       -0.019220553 -0.117386326 -0.002184903 -0.07064854
000160 21 ad 08 bf 72 aa 8e 3c 73 a6 4f bd 7f 12 f9 be
       -0.53389174 0.017415259 -0.050695848 -0.48646924
000170 07 72 88 bd 49 11 0c be b2 dc 8a be ab cf c4 bd
       -0.06662374 -0.13678469 -0.27121502 -0.09609922
000180 9a c0 cd bd 8e 03 4f bc 7e c9 a8 bc a2 b2 11 be
       -0.100465015 -0.012635125 -0.020603891 -0.142283
000190 50 8b 96 bd 48 8a 8c bd d5 1b 49 be ae 2d 08 3c
       -0.073507905 -0.068623126 -0.19639523 0.008311672
0001a0 14 ac 7c bd 5c eb 63 3c 3f 67 0d bd 87 52 0c bf
       -0.061687544 0.0139110945 -0.03452229 -0.54813427
0001b0 37 33 d5 be bc 54 1e bf 5d 8b 7a bd 10 53 00 be
       -0.41640636 -0.61848044 -0.061168063 -0.12531686
0001c0 7e 6b c7 3e 92 4b f1 bd 18 03 f9 bd 7d dc c5 3b
       0.38949198 -0.11781992 -0.12158793 0.006038247
0001d0 df 9b 0c be 46 b4 55 be 7f d7 23 bd 13 4f 81 bd
       -0.13731335 -0.2086955 -0.040000435 -0.0631391
0001e0 a0 ee 72 bd b2 b4 76 bd 0b 13 04 bd e9 e3 13 bd
       -0.0593096 -0.06023092 -0.032244723 -0.036106024
0001f0 1c 59 b4 bd 9f 9b 38 bd 86 18 66 3d 3a 16 82 bb
       -0.08806059 -0.045070287 0.05617573 -0.003969935
000200 4e c2 75 be 60 2b 32 bf 0c 8a 99 be 35 74 9b bd
       -0.23999903 -0.69597435 -0.29988134 -0.07590524
000210 ac 32 6b bd b9 25 d1 3b 98 5c 14 be 4f 2a 10 bd
       -0.05742137 0.0063826707 -0.14488447 -0.0351966
000220 44 73 05 bf 1b b6 d1 be d3 51 ce bc 40 03 2d bd
       -0.52129006 -0.40959248 -0.025185501 -0.042239428
000230 4d 8b b2 3b 92 38 d3 bd b5 23 3b bd f2 bb 9d 3e
       0.005448735 -0.10313524 -0.04568835 0.30807453
000240 75 70 3b bd 33 fb 24 bd cf 9a 9b bd 34 58 4b be
       -0.045761544 -0.040278625 -0.07597887 -0.19857866
000250 8f fc a0 bb db 8a d6 bc a2 ea ac bd 08 39 bc bc
       -0.00491292 -0.026189258 -0.0844319 -0.022976413
000260 ea 0b fe bd 61 70 6e 3b fc 59 8a bd 38 03 1c be
       -0.12404616 0.00363829 -0.067554444 -0.15235603
000270 79 cc 1e bf d3 aa 8d bd d6 51 23 bc 54 7d a1 bd
       -0.6203075 -0.06917348 -0.009968242 -0.078852326
000280 71 45 5f be b8 ac 25 bd f9 90 58 bc ef 46 d6 be
       -0.21803834 -0.04044792 -0.013218158 -0.41850993
000290 c4 a3 fa bd a6 66 ec bc 12 dc f8 bc 61 e0 ec bc
       -0.12238267 -0.02885754 -0.030378375 -0.028915586
0002a0 b3 54 86 bd 6f 6c 5d bc 9e 44 28 bf fa 86 4b bd
       -0.06559124 -0.013514622 -0.657297 -0.04968927
0002b0 10 71 2a 3e 69 ac fc bd 5f 04 24 bd a2 73 b4 be
       0.16644692 -0.12337572 -0.04004323 -0.3524447
0002c0 20 46 b3 bd 55 17 48 be 22 73 5d bd 9c 9d c1 bd
       -0.0875361 -0.1954015 -0.054064877 -0.0945389
0002d0 e0 41 26 bd 41 e0 45 be a4 6e e0 bd e3 2e 91 bd
       -0.040590167 -0.19323827 -0.10958603 -0.07089021
0002e0 1f 2e fc bc 30 0c 6b be 1d 3b 24 bd af af 51 bd
       -0.030783711 -0.22953868 -0.040095437 -0.051192936
0002f0 25 b6 d3 bd 9f ed c2 3d 96 77 e8 3d 81 0e 02 be
       -0.10337476 0.09517979 0.11350934 -0.12700845
000300 c7 f4 91 bd 01 7a 91 bd f2 fc 1c 3e 02 3d 3b bc
       -0.07126766 -0.071033485 0.15330866 -0.01142812
000310 15 43 12 bd f6 8f b9 bd 5b bb 48 bd 2a e8 f1 bc
       -0.035708506 -0.090606615 -0.0490068 -0.02952965
000320 b7 03 19 bd c1 d3 14 be be a8 b7 3b 07 7e 16 be
       -0.03735706 -0.14533903 0.0056048324 -0.14696513
000330 84 45 11 be b9 04 3f bd 22 50 a2 bd 93 6e 1c 38
       -0.14186674 -0.046635363 -0.0792544 3.729628e-05
000340 98 e4 8b be 6c c3 23 3d 9a bd ad be ea 0f 10 be
       -0.2732284 0.03998129 -0.33933717 -0.1406857
000350 26 15 5a be d0 9e 60 be 23 3f 9e bc 1f ea 1d be
       -0.2129713 -0.21935582 -0.019317215 -0.15421341
000360 5a a1 17 be ba 96 fb bd fe 29 50 bd 0f 29 fa bd
       -0.14807644 -0.12284608 -0.050821297 -0.122148626
000370 a7 c1 e2 3e ff 15 f3 3b 6b e6 e5 3d 3d 96 f5 be
       0.4428837 0.0074183936 0.11225589 -0.47966185
000380 52 c9 36 bd 98 24 b9 bc 62 39 e4 bc 8f 6f 7c be
       -0.044625588 -0.022600457 -0.027859394 -0.24651931
000390 38 54 03 be b3 ee 82 bd 4f eb 11 bf 64 75 f9 bd
       -0.12825096 -0.063931845 -0.5699968 -0.121805936
0003a0 c0 64 42 3c 77 a6 7f bd cc b8 1b bd b6 e1 ab bd
       0.011864841 -0.062414613 -0.038018033 -0.0839266
0003b0 98 a2 f7 bc b0 5d 00 be ed 7e 1e 3e 3b fa 50 3d
       -0.030228898 -0.12535739 0.15478106 0.05101989
0003c0 53 fa 8d bd df 6a 06 be 57 38 1f be 00 1c 58 bc
       -0.06932511 -0.13126706 -0.15548836 -0.0131902695
0003d0 86 82 ca 3d 4b b6 92 be b4 24 27 be 3f aa 80 be
       0.098881766 -0.28654703 -0.16322595 -0.25129887
0003e0 10 b6 0f bd 38 35 bf be 6e 30 94 bd ce 0c 38 bd
       -0.035085738 -0.3734529 -0.072358 -0.044934087
0003f0 17 74 be bd 9c 86 d8 bd 7d 32 eb be f5 6c 2b be
       -0.09299486 -0.1057255 -0.45936957 -0.16740783

linear2.bias f4 [3]
000000 25 47 52 3d d4 91 58 be 1c 17 74 be
       0.05133738 -0.21149379 -0.2383694
